lenet/lenet5_mnist.pth (torch, 181310 bytes, 10 tensors)

conv1.weight f4 [6, 1, 5, 5]
00000000: 8309 973c 040b 133e c8ff 653e 501c 623e
00000010: 7ca7 5a3e e948 0c3e c7d8 013f 6dac 573f
00000020: bfe7 3c3f 12e9 053f d5fa 9b3e 7861 1e3f
00000030: 6f82 473f b872 4f3f 4848 f83e dd6e ac3e
00000040: e227 093f e6cc cb3e 27a9 ee3e 4708 1d3e
00000050: 4b99 2a3e badf c33d 9264 4a3e 3899 683c
00000060: 95a3 243b fe25 25bd 66fe 943d bb10 8dbd
00000070: 5923 5e3d 5d9e b53e de4b 2a3e 1c18 cf3b
00000080: c667 613d 2656 293e 49df db3e 6fea 23be
00000090: 67a4 ecbc 981c a33c 91ed 9c3e 80cd a33d
000000a0: 857c 99be 4486 b3be 2339 54be adff 083e
000000b0: cffb 9d3e 1908 a3bd 4685 20be 297c 25be
000000c0: 892d 233d 2905 a53e 87b1 7fbd bbe6 0cbe
000000d0: c0f2 e13c 7e44 c23b 85c1 c7bd bfde 323d
000000e0: f5b1 fa3d c484 1cbe 1cea 00be e129 56be
000000f0: 3ed5 9cbd 1bc9 bebd 609b 8ebd b6b9 413d
00000100: 6418 703d caa6 01be ec7c 39be cf82 503d
00000110: 5f1f f63b ec1e 20be cf0e 33be e74a 29bd
00000120: 7708 c73d 12d8 2cbe 5b08 223e 720b 17be
00000130: f57c 43be 9ab1 79be 55cf 51be cbe4 49be
00000140: dc33 b4bd 0dfe 7abe 1123 77be bc93 16be
00000150: 0596 03bd 227c 40be 31a4 63be ad99 633d
00000160: eac1 5fbe a6af cabd 5ab1 bdbd 2210 e3bd
00000170: e145 2e3d ba52 bbbd 57fb 6fbe 0d3f 8ebd
00000180: d61c 053e 4c76 be3a 317a 2fbe 3059 5bbe
00000190: a7d5 3f3e fa86 99bd 1796 c7bd 3fac 85be
000001a0: 478d 9dbd e0c3 81bd 6e60 56be a2a0 d2bd
000001b0: bd57 a9bd 3b7b 123e c42e 743e ee01 4d3e
000001c0: 1f85 97bd 5af3 2c3e 9eab 1c3c 7d3e 5d3e
000001d0: 05fa 15bd 02c8 bc3e 920e bc3d 62db bb3e
000001e0: d015 d9bc 0a2a 183d 8bef bf3e b1f4 c73e
000001f0: 6cd4 c13d 64cc 453e aa20 4e3e 3878 44bd
00000200: 042c 9fbc d82e 2fbe 324a 31be 732c 9f3d
00000210: 24a9 f2bd ab12 6b3d 875b 0ebe 4454 15be
00000220: 6fa4 9d3d aa3a f8bd 1b54 52be a1a8 61be
00000230: 235a 193e 02d2 11be 9775 4d3e 9723 6c3e
00000240: 20aa ddbb b696 403e 2b9d 7ebd ec66 6b3e
00000250: 2dc5 9f3e 0e5b 86bc
0.018437153 0.14359671 0.22460854 0.22081113 0.21352953 0.13699688 0.507214 0.84247476
0.73791116 0.5230876 0.30464807 0.61867476 0.779334 0.8103442 0.48492646 0.33678332
0.5357648 0.39804763 0.46613428 0.15335189 0.16660039 0.09564157 0.19764927 0.014196686
0.0025121917 -0.040319435 0.07275085 -0.06887957 0.05423293 0.35472384 0.16630504 0.0063200127
0.055030607 0.1653677 0.4294379 -0.16007398 -0.028886987 0.019911095 0.3065 0.079981804
-0.29977813 -0.35063374 -0.20724921 0.13378783 0.30856177 -0.07960529 -0.1567584 -0.16160645
0.039838348 0.322305 -0.062425163 -0.13759892 0.027581573 0.005928575 -0.09753708 0.04366946
0.12240974 -0.15285021 -0.12589306 -0.20914413 -0.0765786 -0.093157016 -0.06963229 0.04729625
0.05861701 -0.12661281 -0.1811406 0.050906 0.007511064 -0.15636796 -0.17486118 -0.041331198
0.097184114 -0.168793 0.158235 -0.1475046 -0.19090636 -0.24384156 -0.20489247 -0.19716184
-0.08798954 -0.24510975 -0.2413447 -0.14704794 -0.03212549 -0.18797353 -0.22230603 0.05556648
-0.21851316 -0.098967835 -0.09262343 -0.110870615 0.04254711 -0.09146638 -0.23435722 -0.0694562
0.12999281 0.0014531105 -0.17136456 -0.21420741 0.18733846 -0.07496448 -0.09745424 -0.26107976
-0.07692962 -0.06336188 -0.20935223 -0.102845445 -0.08268688 0.14304821 0.23845965 0.20020267
-0.07398438 0.16889706 0.009562401 0.21605869 -0.03661539 0.36871344 0.091824666 0.36690813
-0.026499659 0.037149467 0.37487444 0.39053872 0.094643444 0.1931625 0.20129648 -0.047966212
-0.019430168 -0.17107713 -0.1731346 0.0777215 -0.11848667 0.05739085 -0.13902102 -0.14582926
0.07697379 -0.12120564 -0.20539896 -0.22036983 0.1497579 -0.14240268 0.20064388 0.23060451
-0.0067646652 0.18807492 -0.062161606 0.2298848 0.3120512 -0.01640084

conv1.bias f4 [6]
00000000: fb80 253f a969 a73e 5f36 b8bd 8d95 c43c
00000010: 9604 de3d 64a9 7c3d
0.64649934 0.326978 -0.089947455 0.023997093 0.108407184 0.06168498

conv2.weight f4 [16, 6, 5, 5]
00000000: 87e6 843c 7f19 d0bd cc2d ddbc 6431 89bc
00000010: 5847 d43d 3b9c 58bc 9c3a debd 16fa 343b
00000020: 3075 323c 449b e33d 40c5 a8bd 8dac 0dbd
00000030: 221c 193e a2f8 833d 6b13 bf3d b3fb 8dbd
00000040: 21be 733d d2ba a93d 4a39 543c da14 d2ba
00000050: 24a7 d93c 17c5 9bbd 732e bdbd 63a3 56bd
00000060: b74f 303d 82b5 8a3d ec8b f2bc f5d1 313d
00000070: aa94 85bd cd1b 213d 3311 54bd 1f8c 933d
00000080: 8bbf 13bd 7d95 af3d 499f 86bc 2353 c63b
00000090: ea27 bb3d 2dac b03d e87c bbba ad6c 13bd
000000a0: 6123 b3bc 0884 6cbd 15e5 723d 2e6d ac3d
000000b0: 764b 1bbd 85a8 b4bd 9742 733d 9507 3e3d
000000c0: 8fa3 a23d 7698 01bb 3dfe 823c fa34 8abd
000000d0: baae 64bd d979 6a3c 9e86 7e3d c497 103c
000000e0: ea22 a8bc 635a 63bd 22af 47bd 8fd6 54bc
000000f0: 1d61 92bd 61b4 69bd 1589 01bd fa37 463c
00000100: 9926 0dbd 4bb2 653d c231 903d 20f7 233c
00000110: 2220 e8bc 6950 d83c 27f5 cfbc e0be a4bc
00000120: aa4e b4bb c68d 523d c88b 863d d35a 2a3c
00000130: 936c 5bbd 4392 b4bc 0e04 26bd c636 963d
00000140: 5bf8 efbc 34b3 393d 0243 4ebd 1c95 11bd
00000150: cff2 613d 55ac aebb fa30 f5bc 5abb 0d3c
00000160: 3762 8a3c 6f5a 323d a577 4e3b 543c 91bd
00000170: 450a 37bd f47a f8bc d59a 873d 53a1 4ebc
00000180: 3acb 37bd 989f 38bd ea8f 293c 476c 9b3d
00000190: 4399 8dbc 09bd a63c 18a7 9dbb 47ac a83d
000001a0: 82af 7ebd d5a9 12bd 69c3 99bd 931a ae3d
000001b0: 8254 34ba 9f25 9f3d e52e 4b3d 3691 40bc
000001c0: 92cc 62bd 382f 23bd b6f4 43bd f4de a4bd
000001d0: 86e0 6dbd 97e5 fcbc 2cc2 93bd 2c5e 373d
000001e0: f623 5cbd 1a9b 47bd e0f8 ae3b f91e d4bc
000001f0: b719 553c 4d48 3b3d e686 8b3c 47d4 6cbd
00000200: b447 6bbd b343 843d 4e3f 883d 65d9 8d3d
00000210: ebfd b63c 87d0 96bd 456c 1fbd 2058 263d
00000220: fcb4 943c 3f8a 893d edf8 213d 199b 40bd
00000230: 84e8 503d 8f40 513d 4f29 88bd 650a 04bc
00000240: e154 85bd 8aac 693b 2c75 8fb8 cdb5 56bd
00000250: b70e 19bd e0b0 24bd 8885 0b3c 3586 a7bd
00000260: 86ff 1fbe 7c4b 56bd 524f 733c 5511 9b3d
00000270: 71f7 8c3d db65 283c 4e31 17bd 9655 dd3d
00000280: 48e0 ec3d bcbe 8a3e 5744 a13e 94e7 8b3e
00000290: 0eb0 0e3e f48d a2bd dd84 7e3b 64da 033e
000002a0: fe88 1f3e 160d e43d 22af 74be 209c 60be
000002b0: e4a1 4bbe 6940 cabd c6d4 b3bd 1010 4c3c
000002c0: f8a1 303d 36e0 86bd ff80 703d dc66 53bd
000002d0: 1941 b5bd 0480 583d 2c17 653d 3bcb 90bb
000002e0: e65c febb 7005 943d 5eb7 c13d 8275 0a3e
000002f0: 91cf 4f3b fd3b 44bd 5745 113d 7007 2c3c
00000300: b87d 4b3d 0257 4dba 54fc 0c3d 9a19 663c
00000310: 1b2f 5e3c 78df 033d a8a2 24bc 819e 883d
00000320: 9325 b73d 74a7 bf3c 10d3 6c3c 1a01 e2bc
00000330: 349b f4bc 0bee 483c 54f4 17bb ad33 d23c
00000340: 4d2f 943c 630e 82bd b074 98bd 09fa 1bbd
00000350: 0f8e bdba 121a bcbd 422d 5dbb 4230 8b3c
00000360: 858d 8bbd 5384 afbd d62c 903c ec9d 2d3d
00000370: f839 2d3d 42ce 9fbd 8d69 4b3d 7ac5 aabd
00000380: ab6a 5bbd 593e e43d 689e a53d 42c1 a2bc
00000390: ff1e 633d 6f96 8abd 1c1a 1cbd b885 7c3d
000003a0: 005e 653d 35bb 2b3d f16e c43c 6fac 1ebb
000003b0: b532 663c 1ba5 2abd 007d fcbd cc85 2cbd
000003c0: 68af 873d 1d02 183d cc35 75bb e3ab f5bd
000003d0: 70fa 7dbd a31c 51bb 4488 993d 62b8 503d
000003e0: 98b6 fb3c 483e 66bd 1b0a 99ba ed5f 68bd
000003f0: e23a 153d 70b8 a4bd 2da0 27bd 284a 053d
0.016223205 -0.10161113 -0.026999377 -0.016747184 0.1036517 -0.013220842 -0.108510226 0.0027614883
0.0108921975 0.11113599 -0.082407475 -0.034588385 0.14952138 0.06443907 0.093298756 -0.069327734
0.059507493 0.08287586 0.012953112 -0.0016027943 0.026568957 -0.07605951 -0.09237375 -0.05240191
0.043044772 0.06772901 -0.029607736 0.04341312 -0.06522496 0.039333154 -0.051774215 0.0720446
-0.03607134 0.085734345 -0.016433375 0.006052391 0.091384724 0.0862659 -0.0014304193 -0.035992313
-0.021867456 -0.057743102 0.0593005 0.08419262 -0.037913762 -0.08821205 0.059389677 0.04639395
0.079413526 -0.0019774712 0.01599037 -0.06748386 -0.055830695 0.014311277 0.0621401 0.008825246
-0.02052446 -0.05550612 -0.048751004 -0.012990608 -0.07147429 -0.05705679 -0.031624872 0.012098307
-0.034460638 0.056078237 0.070407405 0.01000765 -0.028335635 0.02640553 -0.025385452 -0.020110548
-0.0055025415 0.051404737 0.0656963 0.010397631 -0.05357034 -0.0220424 -0.04053121 0.07334666
-0.02929323 0.045336917 -0.050356872 -0.035542592 0.0551632 -0.005330602 -0.02993058 0.008650625
0.016892536 0.043543275 0.003150442 -0.07091585 -0.04468753 -0.030332066 0.06621329 -0.012611705
-0.044871546 -0.045074075 0.010349253 0.07589012 -0.017284995 0.02035381 -0.004811179 0.08235984
-0.062179096 -0.035806496 -0.07507975 0.085011624 -0.0006879048 0.077708475 0.04960527 -0.011753371
-0.055370875 -0.039839953 -0.047840796 -0.080503374 -0.05807545 -0.030871196 -0.0721477 0.044767544
-0.053745233 -0.0487319 0.005339727 -0.025893675 0.013006619 0.04572325 0.017032098 -0.05781963
-0.05744143 0.06458225 0.066526994 0.0692623 0.022337874 -0.07363992 -0.038921613 0.040611386
0.018152706 0.067158215 0.039544035 -0.047022913 0.051002994 0.05108696 -0.06648504 -0.008059119
-0.0651033 0.003565582 -6.840596e-05 -0.052419472 -0.03736755 -0.040207744 0.008515723 -0.08179895
-0.15624818 -0.05231808 0.014850454 0.07571665 0.06883133 0.0102781905 -0.036912255 0.1080734
0.11566216 0.27098644 0.31497452 0.27325118 0.13934347 -0.07937232 0.0038836517 0.12876278
0.15579602 0.111353084 -0.23894933 -0.21934557 -0.19885975 -0.098755665 -0.08780818 0.0124550015
0.043123215 -0.065857336 0.05871677 -0.051611766 -0.08850307 0.05285646 0.0559303 -0.004418758
-0.007762539 0.072275996 0.09458803 0.13521388 0.0031709413 -0.04790877 0.03546652 0.01049982
0.04968044 -0.00078330946 0.034420326 0.01404419 0.0135610355 0.03219554 -0.010048546 0.06670857
0.089427136 0.023395278 0.014454618 -0.027588416 -0.029859163 0.012263785 -0.0023186402 0.025659407
0.018088961 -0.063504 -0.074441314 -0.03808025 -0.0014461892 -0.0918466 -0.00337489 0.016990785
-0.06814102 -0.08570161 0.017599504 0.042386934 0.04229161 -0.078030124 0.049661208 -0.08338447
-0.053568523 0.11144704 0.08086854 -0.019867543 0.055449482 -0.06766974 -0.038110837 0.06165096
0.05599785 0.04192658 0.023978682 -0.0024211665 0.014050175 -0.041661363 -0.12328529 -0.042119786
0.06625253 0.03711139 -0.0037416099 -0.119956754 -0.062006414 -0.0031907938 0.07496694 0.05095709
0.030726716 -0.05621174 -0.0011675985 -0.056732107 0.03643311 -0.08042991 -0.04092424 0.032541424

conv2.bias f4 [16]
00000000: 98de 46bd c2fd 9d3d 8079 8a3d f146 833c
00000010: c21c 24bd 0848 42bd 210b c53d 16dd 80bd
00000020: 87db 823d b9d8 e23d ed80 c63d df64 813c
00000030: 5cef 193d fa6f d83b b3b9 a73d 17eb 703d
-0.048552126 0.07714416 0.067614555 0.016025038 -0.040066488 -0.047431976 0.09621263 -0.06292169
0.06389528 0.11076493 0.096925594 0.01579517 0.037581787 0.0066051455 0.08189716 0.05881795

fc1.weight f4 [120, 256]
00000000: bbc1 3d3d 80d0 6dbd b945 acbc 4802 0dbd
00000010: bfda 3c3d 96d6 0b3c 23cf 60bd 43d5 d7bc
00000020: 5f32 f73c ed82 c7ba 0ea9 26bd 27f3 85bc
00000030: 5813 05bd 95be 373c 19cf ef3b a693 513d
00000040: 8a3f e43b 4a88 4e3c d906 ab3c a04d 77bd
00000050: 03df 7fbd e4cc 18bd 6d65 293c 97e9 443d
00000060: 201c 3cbd ebdb 773c 3896 483c 43de 763c
00000070: 08de 1c3d e41a b0bc 060b ae3b ab24 1e3c
00000080: 6d07 73bd 274a 27bd 6438 2e3c 6c07 6f3c
00000090: d7d1 d7bb 88be d33c e096 023c 3f6f f3bc
000000a0: c1dd 42bd 713b 20bc 765d 0f3d 3d41 fcbb
000000b0: 9f50 6dbd 3589 713c b59c 413d d480 633d
000000c0: 4685 0f3b 3cad 953c 5daa dd3c b4f7 12bd
000000d0: c953 2b3d 30b0 5dbc c733 53bc 5f4b 61bd
000000e0: bc1c 38bd f72e 083d f69a e63c 01f0 1dbd
000000f0: 5695 febc f51b e4bc 8ecf 483c eab3 56bd
00000100: de0e 4fbc cb21 b63a 4834 89bc b233 723d
00000110: 4fd4 043d a687 313d 116a e83c fe1e 6f3d
00000120: 6bab 9abc 2b0b e4bc caf2 593c 87d2 f3bc
00000130: 95b4 b0bc 3734 ac3c 50b8 a8bc ee02 433c
00000140: ccf3 97bc 4fa3 f3bc d5af 1c3c 5511 86bd
00000150: d18c 433b 2880 f33c 76d9 1f3d 72e2 22bc
00000160: 1390 91bc fd77 53bd 6274 043d 97e9 233c
00000170: 8531 e83c 6c0c 293d a251 6b3c cd82 a43b
00000180: 365c 8fbc da3a 2c3d c6a8 3fbd 30a5 133c
00000190: 870f 08bd d980 c2bc 4c9d b83c 7a23 1cbd
000001a0: ce46 933c 06a2 e83b 53d1 45bd 0b46 6a3c
000001b0: f33b 1e3d ceb9 aa3c c520 80bc 1820 283b
000001c0: 6620 2e3c a20d 6f3d 648c e63c ac28 32bd
000001d0: 7f7e 10bd bf90 793c 66be 223d 5eef 5a3c
000001e0: ed1b 543d b92c cabc b2fa 1ebc 25f0 20ba
000001f0: 8d13 b13b c363 833c 48bc cbbc c26a 923b
00000200: f628 a4bb 8b5e 623d 1d65 923c 790b 253c
00000210: 2d1a 7c3b fc12 803d 25f5 65bd e5eb 333c
00000220: 6877 f43b aafd 043c 06aa b3bc 840e 89bb
00000230: 58ed 1c3d 1ec4 503b 4fa3 0b3d 7d0d aabc
00000240: f585 52bd 42db 573d 89f2 50bd f8d0 8bb8
00000250: 65a2 163c 153a ee3c 5d73 65bd e509 3cbd
00000260: 3b45 14bb 709a 293d 9644 373d 78de 98bc
00000270: 6b63 9cbc cf04 993c 28f5 f9bc cc4b 9d3c
00000280: c5fe cb3c c4bf 0a3d 6f27 283d 4823 2d3d
00000290: 36d5 e9bc 99fc 063d 84b0 6dbd 89cb 9fbc
000002a0: c0df 173c c8a8 793d 5aef 6dbd 68ee 02bd
000002b0: dc08 f1bc 3bcb 8ab8 a436 38bc 144a 23bd
000002c0: 8792 4d3c aba1 58bd ae11 ecbc 28b1 f33b
000002d0: cd09 0e3d 89f1 233c 6699 43bd 61ba 273d
000002e0: e49f 603d 101a 8b3c 4c56 763c f8ff 463c
000002f0: e46b 45bd 24c6 123d 614e c0bc b239 4f3c
00000300: ea4b 79bd f9e0 8c3c 44d6 ac3c f5a5 dabc
00000310: 63e9 773d b017 5cbd f152 84b9 f246 bc3a
00000320: d1d1 20bc 2651 d7bc f6d8 4fbd f550 9ebc
00000330: 1fe4 12bd 3c2e 123d 2387 0bbd 5604 523d
00000340: 3a3c d53c dad1 01bd e4b5 46bd d43d 873c
00000350: 9676 26bd c06a 38bc 1c7f 53bd 7068 69bd
00000360: 80a7 dd3c 1a7d 60bd 320f 4bbd 38a1 2c3d
00000370: 6315 3abd 8fe1 f3bc 8bec 5f3d 679d 0a3d
00000380: 1205 093d 6d89 67bd 1412 38bd 2c9b 0bbc
00000390: 74a3 3abd 11d5 6dbd 31b8 10bd 6ac4 62bd
000003a0: 42d8 44bd abe7 6a3d 502a d33c 0181 2e3a
000003b0: cb37 34bd b39a eebc a175 6fbd a4fe 2fbd
000003c0: 6dd9 23bd 00b5 5f3d a90b 2a3c 4663 06bd
000003d0: 334b 4dbb 5bf5 f33c 6cb1 80bd bba0 32bd
000003e0: 9aea 62bd 9caf 92bc c55c 2bbc 04e1 233d
000003f0: f33a fa3c 796a f33a 7181 a2bc 2887 5d3d
0.046327334 -0.05806017 -0.02102934 -0.034426004 0.04610705 0.008535048 -0.05488504 -0.026346808
0.030175386 -0.0015221514 -0.040688567 -0.016351296 -0.03248915 0.011214872 0.007318389 0.0511662
0.0069655823 0.012605736 0.020877289 -0.060376763 -0.06246854 -0.037304774 0.010339123 0.04807433
-0.04592526 0.015128116 0.012242846 0.01506764 0.038297683 -0.021497197 0.0053113727 0.009652297
-0.059333254 -0.0408422 0.010633562 0.014589172 -0.006586294 0.025847688 0.007970542 -0.029716132
-0.047574762 -0.009779797 0.03500124 -0.0076982067 -0.057938214 0.014742185 0.047268588 0.055542782
0.0021899506 0.018271081 0.027058775 -0.03588076 0.04182795 -0.013530776 -0.012890763 -0.05500352
-0.04494928 0.033247914 0.028150063 -0.038558964 -0.031077068 -0.027845362 0.012256516 -0.052417673
-0.012637822 0.0013895569 -0.016748562 0.05913133 0.032429036 0.043342255 0.028370889 0.058379166
-0.018880567 -0.027837357 0.013302514 -0.029763473 -0.021570483 0.021020992 -0.0205957 0.011902554
-0.018548869 -0.029740958 0.009563406 -0.065462746 0.0029838572 0.029724196 0.039025746 -0.009941684
-0.017768895 -0.0516281 0.032337554 0.010004423 0.028343925 0.041271612 0.0143627245 0.0050204755
-0.017500024 0.042048313 -0.046791814 0.009011552 -0.033217933 -0.02374308 0.022535942 -0.03811977
0.017978098 0.007099393 -0.04829533 0.014298926 0.03863139 0.020840552 -0.015640626 0.0025653895
0.010627842 0.05836261 0.028143115 -0.04349582 -0.035276886 0.015232264 0.03973236 0.013362734
0.051784445 -0.024679529 -0.009703325 -0.00061393 0.005403942 0.016038781 -0.024870053 0.004468293
-0.0050097657 0.055265944 0.01787048 0.010073536 0.003846775 0.06253621 -0.05614199 0.010981535
0.0074605234 0.008117119 -0.02193166 -0.0041826386 0.038312286 0.0031855176 0.03409129 -0.020758385
-0.051397283 0.052699335 -0.05101255 -6.66696e-05 0.009193991 0.02908043 -0.056018222 -0.045907874
-0.0022624272 0.04140705 0.044743143 -0.018660769 -0.019090375 0.01867905 -0.030512407 0.019201182
0.024901757 0.03387429 0.04105323 0.042269975 -0.02854405 0.03295574 -0.058029667 -0.019506233
0.009269655 0.060951978 -0.05808959 -0.031965643 -0.02942317 -6.6182074e-05 -0.011243496 -0.03986557
0.012547142 -0.052888554 -0.028817024 0.00743689 0.034677316 0.010006317 -0.047753714 0.04094923
0.054839984 0.016980201 0.015035223 0.012145989 -0.048198596 0.035833493 -0.023474874 0.012648033
-0.060863413 0.01719712 0.021098264 -0.026690463 0.06052531 -0.053733528 -0.00025238798 0.0014364405
-0.009815649 -0.026283812 -0.05074402 -0.019325713 -0.035862084 0.035688624 -0.034064423 0.051273666
0.026029695 -0.03169427 -0.04851331 0.016508974 -0.040640436 -0.01125592 -0.051634893 -0.056984365
0.02705741 -0.054806806 -0.04957504 0.042145938 -0.045430552 -0.02977064 0.054668944 0.033841517
0.0334521 -0.056527544 -0.044939116 -0.008520883 -0.045566037 -0.058064524 -0.03533191 -0.055363096
-0.048057802 0.057349842 0.025777012 0.00066567963 -0.04399852 -0.0291265 -0.05846179 -0.042967454
-0.040002275 0.054615974 0.010378757 -0.03280952 -0.003132534 0.02978008 -0.062838405 -0.043610316
-0.055399515 -0.017906003 -0.01045913 0.040009513 0.030545687 0.001857116 -0.019837113 0.054083973

fc1.bias f4 [120]
00000000: 43c3 233d 785a 073d 7393 253d be6c 9b3c
00000010: 7422 00bd 7c45 da3c 4964 343d 1be1 313a
00000020: c6bd 7c3d 6067 65bd 7465 983d 9bad 47bc
00000030: 7d4e fe3c 4402 833d 733a 6ebd a2fb aebb
00000040: 389e 543d 1579 163c bde5 803c dc9e 85bc
00000050: 96ba 833d b7e3 1e3d f339 453d 53b0 eabc
00000060: 0a5f 7a3d ff22 12bd 8264 11bc 56ab 3a3d
00000070: 9d07 123d b7fc 39bd 1bbf 13bd 1e16 9f3d
00000080: 5de8 f43c c59a 57bd be78 403d 75d2 68bd
00000090: b45a 67bd f28d 1d3d b0b0 1ebd 30c1 f5bc
000000a0: ba94 1c3d 708d 473d acb1 d73c cd0d 70bd
000000b0: 7782 93bc 6007 ecbb 4fc9 de3c 82dd a63b
000000c0: 6417 0bbd 68eb 603b 7b22 78bd 45d9 143d
000000d0: 4e53 0f3d db11 c3bc f690 b9bc ef03 993c
000000e0: 3d92 4abd 8790 dd3c 13cb ac3d 133d 1e3c
000000f0: 755b 60bd d62e 073d d18f 7ebd 7208 0d3d
00000100: 26d0 48bc 55fb 7abc a934 e1bc c240 f0bc
00000110: ee06 473d b653 11bc 06f6 71bd c891 de3b
00000120: 57db 03bd 72e2 1ebd f66f 8a3c 156f 0bbd
00000130: 81aa 783d 7398 59bc f533 1fbd 7fed 80bd
00000140: 846d b2bc d5b7 72bd f708 57bc 3b97 04bd
00000150: 944c 9ebc aa43 1d3c 36d8 14bd 63f1 ad3d
00000160: d804 89bc 70e8 53bc f2d8 23bc f627 5dbd
00000170: 9e5a 5b3d a0ef 7cbd 4042 03bd f446 c43c
00000180: 5bd6 413d e952 85bd 221d babc 3921 6f3d
00000190: 0d9b 5c3d 21ae 313d 1198 19bd 1f76 a03c
000001a0: 6cae ff3a ec8f 8f3c f767 ec3c a7b5 88bd
000001b0: 4c5e af3c bcd1 7abd b337 1d3d 5cc4 00bd
000001c0: 2f20 69bc 6b8c 6a3d c1c7 10bd e5ee de3b
000001d0: c08a 913c f035 35bc c9cb 3cbd 9893 0aba
0.039981138 0.033045262 0.04042382 0.01897275 -0.031282857 0.02664446 0.044040952 0.00067855575
0.06170442 -0.05600679 0.07441226 -0.012187387 0.031043286 0.063969165 -0.05816121 -0.0053400556
0.0519087 0.009184142 0.015734548 -0.016311102 0.06432073 0.038791385 0.048150968 -0.028648531
0.061125793 -0.035677906 -0.008874061 0.045573555 0.03565179 -0.045407023 -0.036070924 0.077678904
0.029895956 -0.052637834 0.04699015 -0.056841332 -0.056482986 0.038465448 -0.03874272 -0.029999346
0.038227774 0.04871887 0.026329838 -0.05860691 -0.018006546 -0.0072030276 0.0271956 0.0050923238
-0.033957854 0.003432 -0.06057976 0.036340017 0.034991555 -0.023812225 -0.02265213 0.018678633
-0.04945587 0.027046455 0.08437171 0.009658116 -0.05477472 0.03300365 -0.062148873 0.034431882
-0.012256658 -0.015318711 -0.02749093 -0.029327754 0.048590593 -0.008870056 -0.059072517 0.006792281
-0.0321916 -0.038790174 0.01689909 -0.034041483 0.06070948 -0.013280976 -0.03886791 -0.06295299
-0.021780737 -0.059257347 -0.013124696 -0.032370787 -0.019323625 0.009598652 -0.036339007 0.084933065
-0.016725942 -0.012933835 -0.010000454 -0.053993188 0.053553216 -0.06175196 -0.032045603 0.023959614
0.047323566 -0.065099545 -0.02271897 0.058381293 0.053858805 0.043378953 -0.037498537 0.019587575
0.0019506938 0.017524682 0.028858168 -0.066752724 0.021407269 -0.061235175 0.038383197 -0.031437263
-0.014228865 0.05726282 -0.03534675 0.006803381 0.017766356 -0.011060223 -0.046092782 -0.00052862754

fc2.weight f4 [84, 120]
00000000: c007 0dbd 2358 b5bd d0ef c63d 8e7f bb3d
00000010: 5231 81bc ac5c 1abd 7bc4 d93d f80c 883d
00000020: 385f aa3c 88c7 0e3e 2974 713d fcd1 9e3c
00000030: 8a24 f0bc 4fb3 dfbd f3d5 8fbc bc90 ebbd
00000040: dc2e b73d 71de c73d 7a0f d93c a426 a83b
00000050: dacb 303d b251 7bbd 8889 113e c51d af3d
00000060: fd38 e93b 8ae5 1dbd 9c30 a8bd 8260 073d
00000070: 3626 8fbd 2a48 8abd 7245 973d a6f0 cbbb
00000080: 0661 553d 3e7e c93d a92d 3bbd bb0c d2bc
00000090: 8ce0 80bc c469 173d 8283 da3d e6b3 a4bc
000000a0: 234e 16bd 9bcb d4bd b3d8 82bb 17d2 2d3d
000000b0: 6b12 4e3c f3af 82bc 907b ca3d 739d f03c
000000c0: d19e 423d eccb d73d 7003 bc3c e4fa 1e3d
000000d0: 80b4 42bd cd22 51bd 87b3 ba3d 8223 babd
000000e0: 6732 99bc 75cf 37bb 553a 733d 442a ec3d
000000f0: 7a0a 11bd cee9 3f3d 9d4d 46bc 2069 833d
00000100: a238 a33c db87 e63d 11c8 c33b 1087 003d
00000110: 599b 053e 8d66 8ebd 43f1 0dbc 9612 23be
00000120: eab9 e43c c61e 3cbd b462 c4bd 7c40 73bd
00000130: c93c 05bc bab1 f2bd c9a3 f8bc 019c 69bd
00000140: ff0e ee38 edb4 9b3d b475 bdbc 3e8b e43c
00000150: e25a b73d 474a 263d a4ee 9bbd cdb3 4d3d
00000160: ee45 a7bd 0238 e03d 9fb5 14bd 1458 c9bd
00000170: 7095 e23d d5f9 30bd d196 0ebd 5472 a03d
00000180: f9b4 b13d efea e63d e2fe cf3d 7977 12be
00000190: 6e8c bf3d c9dd a1bd e664 b3bd 2bac fbbd
000001a0: 7718 d73d 67c2 ce3d 81df 953d 6b92 3f3c
000001b0: f51e c53d 0327 b2bd cb2b 363d e1a1 49bc
000001c0: 736f c73d 748e 5e3c 0d65 b73d 766d 183c
000001d0: 03da 10be 914a b13d 2b15 b93d 0702 c13d
000001e0: 225e c53c bab7 21bd 5e7b b03d 2885 a23d
000001f0: e76a b43d 4a04 9aba 2b9e 523d fbfc 9b3d
00000200: 37c8 4c3d 3310 6abc e83f 463d dd6c 8ebc
00000210: b828 0d3d bde8 453d 05b3 733d fc41 bdbd
00000220: e04e a1bb 4f90 8c3d a0bc b3bc 7bd5 99bd
00000230: 05cd 4f3d e39d b93d ecff 9e3d cf4c 02bd
00000240: 9a1f ab3d 2be9 c6bd 0816 823c 4283 7b3d
00000250: 8dca 83bd 9be7 b23c 4dc9 6b3c 35dd 6ebc
00000260: 3887 493d 7bf5 a03c 8fc0 253d 0792 c13c
00000270: 4a3a 293d 88e4 88bd eeb1 74bd d0a8 343d
00000280: d633 d8bc 75ce 9d3d 91df e9bc 2e73 70bd
00000290: 8401 adbd d3c1 1bbd 977d 4f3d 5135 c23d
000002a0: 4cbe b8bd 89b3 30bd 14c8 8b3d d42b c7bd
000002b0: f1ad b73d c01e cd3c a283 ae3d 6aa7 6dbd
000002c0: 6db7 ecba b741 cd3d ab98 b13d f83b d73d
000002d0: 72d0 cd3d 2cc4 8b3d 7e14 9dbd c7bd f73d
000002e0: e6f4 213d c1c9 343d 7ed6 5d3d 6243 293d
000002f0: 85b4 91bd e72c db3c bb79 81bc 0436 653c
00000300: c313 08bd 8208 913c b25c 17bd 176f 07bd
00000310: 8d18 6cbc d9e7 143d d498 80bd 2ef9 13bd
00000320: 740f 293c 67c6 773d 912e 8d3d 01f6 2fbd
00000330: 1a81 913d 5a77 3f3d 5c90 31bc de06 e23d
00000340: a2ff ea3b 3a1d 88bd 2f42 783d 13f9 0c3c
00000350: 994a 75bc b926 c03c d3ba 1bbd b4f7 ac3d
00000360: bfa0 3fbc b7ae e83c 2972 76bc 66f3 933d
00000370: 0222 86bd 235f abbd d25c a23d 283c abbd
00000380: 1127 593d e684 96bc 9f92 a43d 6992 8abd
00000390: 39d2 ae3d 5e54 97bd 7709 9ebd a9ae 013d
000003a0: e1cd 123d 7b48 bebc 9b6b f43c 6135 afbb
000003b0: a770 66bd 7626 48bd dae8 e1bc 7b60 e53c
000003c0: fc9a 313d db3d c3bd 1d8a afbd 75e7 263d
000003d0: 69db 363d cd46 10be d2d7 ca3d 2bbe 50bd
000003e0: 83e0 2c3b d944 aabd ee49 80bd 9bd7 603d
000003f0: b226 373d 3cd6 663d 4caa 06be 74e3 3d3d
-0.03443122 -0.08854701 0.09713709 0.091551885 -0.015770588 -0.037686035 0.10633179 0.066430986
0.020797357 0.13943303 0.05894867 0.019387238 -0.029314298 -0.10922872 -0.017558074 -0.11502215
0.089444846 0.09759224 0.026496638 0.0051315594 0.043163158 -0.061357208 0.1421262 0.085506
0.0071173892 -0.038548984 -0.082123965 0.03305102 -0.0698971 -0.067520455 0.073862925 -0.006223756
0.052094482 0.09838532 -0.04569784 -0.025640836 -0.015732072 0.0369661 0.106696144 -0.020105314
-0.03669561 -0.10390397 -0.0039931177 0.042436685 0.012577633 -0.01595304 0.09886849 0.029371953
0.04751474 0.10536942 0.022950858 0.038813487 -0.04753542 -0.05105858 0.091162734 -0.09088804
-0.018700792 -0.0028047238 0.0593818 0.11531499 -0.03541038 0.046853833 -0.012103465 0.064165354
0.019924466 0.11256381 0.0059747775 0.031378806 0.13047542 -0.06953154 -0.008663478 -0.15925059
0.027920682 -0.045927785 -0.095891386 -0.05938767 -0.008132168 -0.11850305 -0.030351536 -0.057033543
0.000113515176 0.07602868 -0.023127414 0.027898427 0.089528814 0.04059818 -0.076138765 0.0502203
-0.08167635 0.10948183 -0.03630602 -0.09831253 0.11063659 -0.04320701 -0.0348118 0.07834306
0.08677096 0.11275279 0.10156037 -0.14303388 0.09352957 -0.0790363 -0.08759479 -0.12288698
0.10502713 0.10095673 0.073180206 0.011692624 0.09625045 -0.08698847 0.044475358 -0.012306661
0.09738054 0.013583768 0.08954821 0.009303441 -0.14145665 0.086568005 0.090372406 0.09424215
0.024092738 -0.039481856 0.086172804 0.07935554 0.088094525 -0.0011750546 0.051420372 0.076166116
0.049995627 -0.014286089 0.04840079 -0.017385894 0.03446266 0.04831766 0.0594969 -0.09241101
-0.0049227327 0.06863462 -0.02194053 -0.07511421 0.05073263 0.090633176 0.07763657 -0.03181153
0.08355637 -0.09712442 0.015879646 0.061404474 -0.06435118 0.021838954 0.014391256 -0.014579107
0.04920122 0.019648304 0.04046684 0.023629202 0.041315354 -0.06684214 -0.05974 0.044106305
-0.026391905 0.07705394 -0.028548988 -0.058703594 -0.08447555 -0.038026642 0.05065688 0.094828255
-0.09020671 -0.043139968 0.06825271 -0.097251564 0.089687236 0.025039077 0.08521201 -0.058020987
-0.0018060036 0.100223 0.08671697 0.10509485 0.100495234 0.06824526 -0.07669924 0.12096744
0.039540194 0.04413772 0.054159634 0.041324027 -0.071145095 0.02675481 -0.015805116 0.013989929
-0.03322197 0.017704252 -0.036953636 -0.033064928 -0.01441015 0.03635392 -0.0627915 -0.03612631
0.010318626 0.060491946 0.068936475 -0.042959217 0.07104702 0.046744682 -0.010837641 0.11036466
0.007171587 -0.066461995 0.060609993 0.008604306 -0.014971399 0.023455964 -0.038019966 0.08445683
-0.01169604 0.028403623 -0.015041866 0.07224159 -0.06549455 -0.08367755 0.0792786 -0.08361083
0.053015772 -0.018373918 0.08035778 -0.06766207 0.085361905 -0.07389139 -0.07716649 0.03166071
0.035840873 -0.02322792 0.029836467 -0.0053469394 -0.056259777 -0.048864804 -0.027576853 0.028000107
0.043360695 -0.09533282 -0.08571265 0.04074808 0.04464284 -0.14089508 0.09904446 -0.05096261
0.0026378937 -0.08313913 -0.06264101 0.054893117 0.044714637 0.056356654 -0.131509 0.046359494

fc2.bias f4 [84]
00000000: 0469 aa3d a6fa b63d 878e 243d d7e0 1fbd
00000010: 1682 b03b aaa4 413d 12b1 f73d 1397 7ebd
00000020: 3321 b43d 49ed 8cbd b9d6 f6bc dcfe 6f3c
00000030: ec61 c5bc 1bca aa3a b6f2 9abc cc3e ae3d
00000040: df39 7d3d 33b2 ea3d bc43 f4ba 7ece 51bd
00000050: 995f 3d3d 1236 64bd 3242 42bd 48e8 f13c
00000060: 57b0 6ebd 287c 9c3d 936e 503d c784 b93d
00000070: 9a12 64bd ca5f 3a3d 4f5c f23d 5651 c93d
00000080: 9708 dd3d ff4a f83c 6bb4 9a3d 3e97 8bbd
00000090: 14d2 b03d 7bea 6b3d f433 d13c 18b8 473d
000000a0: 3778 413d 0857 f13c 4c1e e73d d5a6 23bd
000000b0: e648 eb3d b5e0 47bd 5427 87bd e608 e83c
000000c0: 7590 9fbd a5c6 5d3d 25e0 363d 3a9e 48bd
000000d0: de45 b53d 930a d43c 1566 6cbc 3268 80bd
000000e0: d178 c43c 26a3 cbbd 235a a3bb 933a b8bd
000000f0: 6a27 983d 2cf2 e6bd 33ff 233c 3fdd 84bd
00000100: 28a5 4bbd e7b0 26bd 505c e6bc 3a55 d73c
00000110: 0458 923d 4cb8 153d acad f8bb 8ee0 59bd
00000120: 8100 b13d 1d43 e5bc 8052 ba3d ec02 253d
00000130: 4cf3 a7bd 1cfe ab3d c6be 9d3d aea0 2c3d
00000140: b00b 263d 4e6c 87bc 2c80 b63d 96a1 a73d
0.083208114 0.08934526 0.040174987 -0.039032783 0.005386601 0.047276177 0.1209432 -0.062155794
0.08795395 -0.06881196 -0.030131685 0.014648166 -0.024094544 0.0013030203 -0.018914562 0.08508071
0.06182277 0.1145977 -0.0018635909 -0.051222317 0.046233747 -0.055715628 -0.04742641 0.029529706
-0.05827364 0.076408684 0.0508867 0.090585284 -0.055681802 0.045501508 0.11834013 0.09829967
0.10792654 0.030309198 0.07553943 -0.068159565 0.08633819 0.057596665 0.025537468 0.04875955
0.047233786 0.029460445 0.112850755 -0.039954025 0.11488514 -0.04879828 -0.06599298 0.028324556
-0.07791225 0.05414452 0.044647355 -0.04897902 0.08851217 0.025883948 -0.014428635 -0.06269874
0.023983391 -0.099432275 -0.0049851104 -0.08995547 0.07429393 -0.11276659 0.010009575 -0.06487512
-0.049718052 -0.04069605 -0.02812019 0.026285756 0.07145694 0.036552712 -0.0075890627 -0.053192668
0.08642674 -0.027986104 0.09097767 0.04028599 -0.08200702 0.08398077 0.07702403 0.042145424
0.04053849 -0.016531136 0.089111656 0.08185117

fc3.weight f4 [10, 84]
00000000: 4f5c 97bd 6745 fdbd 8bdd 46be 5028 6ebd
00000010: e7e2 13bd 68a9 21bd 74b8 3b3e 4886 eb3c
00000020: b702 3ebd a954 fc38 51f0 a13c c948 25bc
00000030: 191d f4bd d5f9 45bd ba92 91bb 8cda c03d
00000040: e7ef d0bd d7bd bbbd ac8d bbbd 354a 56bc
00000050: 16f3 58bd 5a9c 573d 7a72 c5bd 680d c2bd
00000060: e727 a5bd 9dac 82be 03bb 9fbb a65d 553e
00000070: ff39 92bd d210 393e 44d0 573d 7fc7 29bd
00000080: ad6d 45bd ddf8 18be e31c b73d dc41 fcbb
00000090: 0a3a 86bd a3da 53be 0292 49bd e226 38bd
000000a0: cf14 15be f663 d6bd acc7 383e 36f1 70bd
000000b0: aaa0 16be aba0 f03c 4e39 023d 9703 513e
000000c0: b95c a1bd a9e6 2c3e 7e63 533d 7e11 0a3e
000000d0: b3b0 bdbd 84bd 113e a52b c03d 02f5 53bd
000000e0: 4beb d7bc 80af 93bd e3b5 c93d 5941 de3d
000000f0: 2af4 48be ccdc 28be cc79 11be 8d01 513c
00000100: 3aad 9d3d 576e 4ebd a9b9 09bc a8cb c43d
00000110: 890f ffbc fb88 e33d 59ed 03bd 9562 07bd
00000120: 97c6 42be 6689 e23c 4c24 71be b811 84be
00000130: 40f9 a9bd c0c6 313d 7cd5 4d3c 0968 5b3d
00000140: 0326 1f39 9047 79bd fc1a 503d 3799 073e
00000150: cb87 52be e921 c03d be38 12be 02b4 8ebd
00000160: cdcc 2a3a 4e7b 20be 3bdc 9bbd 9e3d 78bd
00000170: 742b 9c3d 762a 273d 4e88 f5bd b1ff 7abe
00000180: 6443 e03b 4e59 37bc 747d 2bbd 0dcb d7bd
00000190: 9379 073d bdd5 1d3e 0e22 82bd c5f7 5a3d
000001a0: ddc9 ec3c 5ab4 90be cccc 973d ecc2 b03b
000001b0: 0d19 683d fc81 d6bd 94f7 22be 23ac d23c
000001c0: eb6e bcbd 40a4 a9bd 1095 d43d 7097 3a3e
000001d0: 7a36 74bd 1cc2 263d 7b47 a13c 8d6e debd
000001e0: c811 713b 56cf 553c 7236 d9bc 8009 ab3d
000001f0: da92 a9bd c7e5 923e fe32 5b3d 2cb3 493c
00000200: 3746 a63d 48f1 d4bc a3a9 43be f510 95be
00000210: 90fe 93bb bed7 423d 617b 673d 7ddf 5abd
00000220: f072 a53e 5957 b3bd 3824 4cbc 6401 aa3d
00000230: 65f0 17be 021b 8d3d f0bd 8dbd 4b24 a4bd
00000240: 33a7 313e ad61 df3d 4683 ea3d d32b 283d
00000250: 7b7a a93c 78fa ee3b 1c8f fabd e2ce 1ebe
00000260: 012a d33d 1382 463d 4622 e63d 2c01 133e
00000270: 9ab4 bc3d 56c8 1abe fe93 0a3e 054d 8a3e
00000280: 5876 753d 34d5 4a3d aa3e 13be b650 6d3d
00000290: 6dbc 953c 8306 d33d 6741 2dbd d9da a2bd
000002a0: 29bd 3c3e 5f06 8dbd e260 65be 3d41 933e
000002b0: 054e c7bd fd35 f3bd a216 bfbd 3554 0c3c
000002c0: b072 233e 380e bcbc 3136 ef3c d2a1 dd3d
000002d0: cd5c 253d 3b4c 343b 7077 90bc 7c30 893d
000002e0: 177c bbbd cbde c83d ed27 993d 245b b7bd
000002f0: 3b26 f43d afb4 093e c85d 18be 3b36 63bd
00000300: 8e52 403e 0e73 49bd 6767 e63d eb3f d13d
00000310: d70e c13d b9cc 773e 2488 9dbd d3c3 a13d
00000320: a4b8 033e a627 443e 0332 c7bd 8ad4 933d
00000330: 8f38 48bd 47ad 14be d79f 2a3e e195 debd
00000340: 3901 0d3e 20d3 e83d 85c5 9c3d a9e7 3b3c
00000350: f834 1abe 4b47 4ebe 3b27 c8bd aff8 b7bb
00000360: 528c 46bd f581 60bd afdb 6fbe afd0 63be
00000370: 92db 32be cc5d 0bbe 41cf 833c ef36 22bc
00000380: b025 6f3e c733 97bd ab43 a3bd 0260 6a3d
00000390: 4de4 5e3c 1099 163e 4f3c f33d 05c0 2e3d
000003a0: 5224 543d edf8 62bc 244f b6bc 15fc 273d
000003b0: 239a 983d 1be1 70bd 0016 373c f030 053e
000003c0: 4d12 e6bd 4142 873c a222 ed3c 729e 0a3d
000003d0: 1d7c b13d fb17 a8bd 0380 11be c98c e33d
000003e0: 3126 803e 6619 cbbd 20ee 81bd f3ed 86be
000003f0: 75e6 37bd 2491 e3bd 636f 753d 04fe 053e
-0.07390653 -0.12366753 -0.1942045 -0.058143914 -0.036105063 -0.0394682 0.18332082 0.028750554
-0.046389308 0.000120320656 0.019767912 -0.010088154 -0.119196124 -0.04833396 -0.00444254 0.094166845
-0.10202008 -0.091670685 -0.09157881 -0.013079216 -0.0529662 0.052639343 -0.09640975 -0.09475213
-0.080642514 -0.25522318 -0.0048745885 0.20836505 -0.07139968 0.18072823 0.052688852 -0.04145002
-0.048200298 -0.14938684 0.089410566 -0.0076982807 -0.06554039 -0.20688872 -0.04921151 -0.044958957
-0.14558719 -0.10468285 0.18044919 -0.058823787 -0.14709726 0.029373487 0.03179293 0.20411526
-0.078790136 0.16884865 0.051608555 0.13483235 -0.09262218 0.1423245 0.093833245 -0.05174733
-0.026357314 -0.07211208 0.09849145 0.10852308 -0.19624391 -0.16490477 -0.14206618 0.012756717
0.07699056 -0.050398197 -0.008406081 0.09609157 -0.031135337 0.11110111 -0.032208774 -0.033053
-0.19021069 0.027653407 -0.23549002 -0.25794768 -0.08299494 0.043402433 0.012563106 0.053566013
0.00015177582 -0.060859263 0.050806984 0.1324204 -0.20559613 0.09381468 -0.14279458 -0.069679275
0.0006515503 -0.15672037 -0.07610365 -0.060605638 0.076254755 0.04081198 -0.11988889 -0.24511601
0.006843971 -0.0111907255 -0.04186769 -0.10536776 0.033074927 0.15413566 -0.06354152 0.053458948
0.02890485 -0.28262597 0.07412109 0.0053943302 0.056664515 -0.10474011 -0.15914756 0.025716847
-0.092008434 -0.08283281 0.10379994 0.18221831 -0.059622265 0.04071246 0.019687405 -0.1086093
0.003678428 0.013049921 -0.02651522 0.08351421 -0.08279963 0.2869093 0.053515427 0.012310784
0.08118861 -0.025993958 -0.1910768 -0.291145 -0.00451643 0.04756903 0.056514148 -0.05343579
0.32314253 -0.087568946 -0.012459807 0.083010465 -0.14837797 0.06889917 -0.06920993 -0.08014735
0.17348938 0.10907302 0.1145082 0.04105742 0.020688286 0.007293042 -0.12234327 -0.15508607
0.10310746 0.048463892 0.11237006 0.14355916 0.092141345 -0.15115485 0.13533017 0.27011886
0.059927315 0.049519733 -0.14379373 0.0579383 0.018278325 0.103039764 -0.0422987 -0.07951898
0.18431534 -0.06885981 -0.22400239 0.2876071 -0.09731678 -0.11875532 -0.09330489 0.008564998
0.15961719 -0.022955999 0.029200645 0.108218804 0.040371705 0.0027511257 -0.017635077 0.06698701
-0.09154528 0.098081194 0.07478318 -0.089529306 0.119213544 0.13447832 -0.14879525 -0.05547164
0.18781492 -0.04918199 0.11250191 0.102172695 0.094266586 0.24199189 -0.076919824 0.07898679
0.12863404 0.1915575 -0.09726336 0.07218273 -0.048882063 -0.14519225 0.16662537 -0.10868431
0.13769998 0.11368394 0.07654861 0.011468806 -0.15059268 -0.20144384 -0.097731076 -0.005614362
-0.048473664 -0.054811437 -0.23423646 -0.22247575 -0.17466572 -0.1361 0.016090037 -0.0099007925
0.2335422 -0.073829226 -0.07971891 0.057220466 0.013604236 0.14706826 0.11876737 0.042663593
0.05179245 -0.013853294 -0.022254534 0.04101189 0.07451274 -0.058808427 0.011174679 0.1300695
-0.11233959 0.016511085 0.028947178 0.03384251 0.08666251 -0.08207699 -0.14208989 0.11110837
0.25029138 -0.09916954 -0.06344247 -0.26353416 -0.044897515 -0.11111668 0.05992068 0.1308518

fc3.bias f4 [10]
00000000: 8636 6fbd 3761 373d 4eee f73c b848 013d
00000010: 4b48 81bc b605 ca3c b0ab 14be 83f4 753d
00000020: 612a 7ebc 8491 923d
-0.058401607 0.044770446 0.030265 0.03156349 -0.015781542 0.024660926 -0.14518619 0.060047638
-0.015513034 0.07156661
